…
0:00, 53.18it/s]100%|█████████▉| 13621/13630 [06:33<00:00, 59.33it/s]100%|█████████▉| 13628/13630 [06:34<00:00, 53.53it/s]100%|██████████| 13630/13630 [06:34<00:00, 34.59it/s]
Train images: 34522 Validation images: 9914
__TRAINING STATS__
Counter({1.0: 17842, 0.0: 16680})
Weights 0.9348727721107499
__VALIDATION STATS__
Counter({1: 5124, 0: 4790})
___________________
=-=-=-=-=-=
EfficientNextViT(
  (efficient_net): EfficientNet(
    (_conv_stem): Conv2dStaticSamePadding(
      3, 32, kernel_size=(3, 3), stride=(2, 2), bias=False
      (static_padding): ZeroPad2d((0, 1, 0, 1))
    )
    (_bn0): BatchNorm2d(32, eps=0.001, momentum=0.010000000000000009, affine=True, track_running_stats=True)
    (_blocks): ModuleList(
      (0): MBConvBlock(
        (_depthwise_conv): Conv2dStaticSamePadding(
          32, 32, kernel_size=(3, 3), stride=[1, 1], groups=32, bias=False
          (static_padding): ZeroPad2d((1, 1, 1, 1))
        )
        (_bn1): BatchNorm2d(32, eps=0.001, momentum=0.010000000000000009, affine=True, track_running_stats=True)
        (_se_reduce): Conv2dStaticSamePadding(
          32, 8, kernel_size=(1, 1), stride=(1, 1)
          (static_padding): Identity()
        )
        (_se_expand): Conv2dStaticSamePadding(
          8, 32, kernel_size=(1, 1), stride=(1, 1)
          (static_padding): Identity()
        )
        (_project_conv): Conv2dStaticSamePadding(
          32, 16, kernel_size=(1, 1), stride=(1, 1), bias=False
          (static_padding): Identity()
        )
        (_bn2): BatchNorm2d(16, eps=0.001, momentum=0.010000000000000009, affine=True, track_running_stats=True)
        (_swish): MemoryEfficientSwish()
      )
      (1): MBConvBlock(
        (_expand_conv): Conv2dStaticSamePadding(
          16, 96, kernel_size=(1, 1), stride=(1, 1), bias=False
          (static_padding): Identity()
        )
        (_bn0): BatchNorm2d(96, eps=0.001, momentum=0.010000000000000009, affine=True, track_running_stats=True)
        (_depthwise_conv): Conv2dStaticSamePadding(
          96, 96, kernel_size=(3, 3), stride=[2, 2], groups=96, bias=False
          (static_padding): ZeroPad2d((0, 1, 0, 1))
        )
        (_bn1): BatchNorm2d(96, eps=0.001, momentum=0.010000000000000009, affine=True, track_running_stats=True)
        (_se_reduce): Conv2dStaticSamePadding(
          96, 4, kernel_size=(1, 1), stride=(1, 1)
          (static_padding): Identity()
        )
        (_se_expand): Conv2dStaticSamePadding(
          4, 96, kernel_size=(1, 1), stride=(1, 1)
          (static_padding): Identity()
        )
        (_project_conv): Conv2dStaticSamePadding(
          96, 24, kernel_size=(1, 1), stride=(1, 1), bias=False
          (static_padding): Identity()
        )
        (_bn2): BatchNorm2d(24, eps=0.001, momentum=0.010000000000000009, affine=True, track_running_stats=True)
        (_swish): MemoryEfficientSwish()
      )
      (2): MBConvBlock(
        (_expand_conv): Conv2dStaticSamePadding(
          24, 144, kernel_size=(1, 1), stride=(1, 1), bias=False
          (static_padding): Identity()
        )
        (_bn0): BatchNorm2d(144, eps=0.001, momentum=0.010000000000000009, affine=True, track_running_stats=True)
        (_depthwise_conv): Conv2dStaticSamePadding(
          144, 144, kernel_size=(3, 3), stride=(1, 1), groups=144, bias=False
          (static_padding): ZeroPad2d((1, 1, 1, 1))
        )
        (_bn1): BatchNorm2d(144, eps=0.001, momentum=0.010000000000000009, affine=True, track_running_stats=True)
        (_se_reduce): Conv2dStaticSamePadding(
          144, 6, kernel_size=(1, 1), stride=(1, 1)
          (static_padding): Identity()
        )
        (_se_expand): Conv2dStaticSamePadding(
          6, 144, kernel_size=(1, 1), stride=(1, 1)
          (static_padding): Identity()
        )
        (_project_conv): Conv2dStaticSamePadding(
          144, 24, kernel_size=(1, 1), stride=(1, 1), bias=False
          (static_padding): Identity()
        )
        (_bn2): BatchNorm2d(24, eps=0.001, momentum=0.010000000000000009, affine=True, track_running_stats=True)
        (_swish): MemoryEfficientSwish()
      )
      (3): MBConvBlock(
        (_expand_conv): Conv2dStaticSamePadding(
          24, 144, kernel_size=(1, 1), stride=(1, 1), bias=False
          (static_padding): Identity()
        )
        (_bn0): BatchNorm2d(144, eps=0.001, momentum=0.010000000000000009, affine=True, track_running_stats=True)
        (_depthwise_conv): Conv2dStaticSamePadding(
          144, 144, kernel_size=(5, 5), stride=[2, 2], groups=144, bias=False
          (static_padding): ZeroPad2d((1, 2, 1, 2))
        )
        (_bn1): BatchNorm2d(144, eps=0.001, momentum=0.010000000000000009, affine=True, track_running_stats=True)
        (_se_reduce): Conv2dStaticSamePadding(
          144, 6, kernel_size=(1, 1), stride=(1, 1)
          (static_padding): Identity()
        )
        (_se_expand): Conv2dStaticSamePadding(
          6, 144, kernel_size=(1, 1), stride=(1, 1)
          (static_padding): Identity()
        )
        (_project_conv): Conv2dStaticSamePadding(
          144, 40, kernel_size=(1, 1), stride=(1, 1), bias=False
          (static_padding): Identity()
        )
        (_bn2): BatchNorm2d(40, eps=0.001, momentum=0.010000000000000009, affine=True, track_running_stats=True)
        (_swish): MemoryEfficientSwish()
      )
      (4): MBConvBlock(
        (_expand_conv): Conv2dStaticSamePadding(
          40, 240, kernel_size=(1, 1), stride=(1, 1), bias=False
          (static_padding): Identity()
        )
        (_bn0): BatchNorm2d(240, eps=0.001, momentum=0.010000000000000009, affine=True, track_running_stats=True)
        (_depthwise_conv): Conv2dStaticSamePadding(
          240, 240, kernel_size=(5, 5), stride=(1, 1), groups=240, bias=False
          (static_padding): ZeroPad2d((2, 2, 2, 2))
        )
        (_bn1): BatchNorm2d(240, eps=0.001, momentum=0.010000000000000009, affine=True, track_running_stats=True)
        (_se_reduce): Conv2dStaticSamePadding(
          240, 10, kernel_size=(1, 1), stride=(1, 1)
          (static_padding): Identity()
        )
        (_se_expand): Conv2dStaticSamePadding(
          10, 240, kernel_size=(1, 1), stride=(1, 1)
          (static_padding): Identity()
        )
        (_project_conv): Conv2dStaticSamePadding(
          240, 40, kernel_size=(1, 1), stride=(1, 1), bias=False
          (static_padding): Identity()
        )
        (_bn2): BatchNorm2d(40, eps=0.001, momentum=0.010000000000000009, affine=True, track_running_stats=True)
        (_swish): MemoryEfficientSwish()
      )
      (5): MBConvBlock(
        (_expand_conv): Conv2dStaticSamePadding(
          40, 240, kernel_size=(1, 1), stride=(1, 1), bias=False
          (static_padding): Identity()
        )
        (_bn0): BatchNorm2d(240, eps=0.001, momentum=0.010000000000000009, affine=True, track_running_stats=True)
        (_depthwise_conv): Conv2dStaticSamePadding(
          240, 240, kernel_size=(3, 3), stride=[2, 2], groups=240, bias=False
          (static_padding): ZeroPad2d((0, 1, 0, 1))
        )
        (_bn1): BatchNorm2d(240, eps=0.001, momentum=0.010000000000000009, affine=True, track_running_stats=True)
        (_se_reduce): Conv2dStaticSamePadding(
          240, 10, kernel_size=(1, 1), stride=(1, 1)
          (static_padding): Identity()
        )
        (_se_expand): Conv2dStaticSamePadding(
          10, 240, kernel_size=(1, 1), stride=(1, 1)
          (static_padding): Identity()
        )
        (_project_conv): Conv2dStaticSamePadding(
          240, 80, kernel_size=(1, 1), stride=(1, 1), bias=False
          (static_padding): Identity()
        )
        (_bn2): BatchNorm2d(80, eps=0.001, momentum=0.010000000000000009, affine=True, track_running_stats=True)
        (_swish): MemoryEfficientSwish()
      )
      (6-7): 2 x MBConvBlock(
        (_expand_conv): Conv2dStaticSamePadding(
          80, 480, kernel_size=(1, 1), stride=(1, 1), bias=False
          (static_padding): Identity()
        )
        (_bn0): BatchNorm2d(480, eps=0.001, momentum=0.010000000000000009, affine=True, track_running_stats=True)
        (_depthwise_conv): Conv2dStaticSamePadding(
          480, 480, kernel_size=(3, 3), stride=(1, 1), groups=480, bias=False
          (static_padding): ZeroPad2d((1, 1, 1, 1))
        )
        (_bn1): BatchNorm2d(480, eps=0.001, momentum=0.010000000000000009, affine=True, track_running_stats=True)
        (_se_reduce): Conv2dStaticSamePadding(
          480, 20, kernel_size=(1, 1), stride=(1, 1)
          (static_padding): Identity()
        )
        (_se_expand): Conv2dStaticSamePadding(
          20, 480, kernel_size=(1, 1), stride=(1, 1)
          (static_padding): Identity()
        )
        (_project_conv): Conv2dStaticSamePadding(
          480, 80, kernel_size=(1, 1), stride=(1, 1), bias=False
          (static_padding): Identity()
        )
        (_bn2): BatchNorm2d(80, eps=0.001, momentum=0.010000000000000009, affine=True, track_running_stats=True)
        (_swish): MemoryEfficientSwish()
      )
      (8): MBConvBlock(
        (_expand_conv): Conv2dStaticSamePadding(
          80, 480, kernel_size=(1, 1), stride=(1, 1), bias=False
          (static_padding): Identity()
        )
        (_bn0): BatchNorm2d(480, eps=0.001, momentum=0.010000000000000009, affine=True, track_running_stats=True)
        (_depthwise_conv): Conv2dStaticSamePadding(
          480, 480, kernel_size=(5, 5), stride=[1, 1], groups=480, bias=False
          (static_padding): ZeroPad2d((2, 2, 2, 2))
        )
        (_bn1): BatchNorm2d(480, eps=0.001, momentum=0.010000000000000009, affine=True, track_running_stats=True)
        (_se_reduce): Conv2dStaticSamePadding(
          480, 20, kernel_size=(1, 1), stride=(1, 1)
          (static_padding): Identity()
        )
        (_se_expand): Conv2dStaticSamePadding(
          20, 480, kernel_size=(1, 1), stride=(1, 1)
          (static_padding): Identity()
        )
        (_project_conv): Conv2dStaticSamePadding(
          480, 112, kernel_size=(1, 1), stride=(1, 1), bias=False
          (static_padding): Identity()
        )
        (_bn2): BatchNorm2d(112, eps=0.001, momentum=0.010000000000000009, affine=True, track_running_stats=True)
        (_swish): MemoryEfficientSwish()
      )
      (9-10): 2 x MBConvBlock(
        (_expand_conv): Conv2dStaticSamePadding(
          112, 672, kernel_size=(1, 1), stride=(1, 1), bias=False
          (static_padding): Identity()
        )
        (_bn0): BatchNorm2d(672, eps=0.001, momentum=0.010000000000000009, affine=True, track_running_stats=True)
        (_depthwise_conv): Conv2dStaticSamePadding(
          672, 672, kernel_size=(5, 5), stride=(1, 1), groups=672, bias=False
          (static_padding): ZeroPad2d((2, 2, 2, 2))
        )
        (_bn1): BatchNorm2d(672, eps=0.001, momentum=0.010000000000000009, affine=True, track_running_stats=True)
        (_se_reduce): Conv2dStaticSamePadding(
          672, 28, kernel_size=(1, 1), stride=(1, 1)
          (static_padding): Identity()
        )
        (_se_expand): Conv2dStaticSamePadding(
          28, 672, kernel_size=(1, 1), stride=(1, 1)
          (static_padding): Identity()
        )
        (_project_conv): Conv2dStaticSamePadding(
          672, 112, kernel_size=(1, 1), stride=(1, 1), bias=False
          (static_padding): Identity()
        )
        (_bn2): BatchNorm2d(112, eps=0.001, momentum=0.010000000000000009, affine=True, track_running_stats=True)
        (_swish): MemoryEfficientSwish()
      )
      (11): MBConvBlock(
        (_expand_conv): Conv2dStaticSamePadding(
          112, 672, kernel_size=(1, 1), stride=(1, 1), bias=False
          (static_padding): Identity()
        )
        (_bn0): BatchNorm2d(672, eps=0.001, momentum=0.010000000000000009, affine=True, track_running_stats=True)
        (_depthwise_conv): Conv2dStaticSamePadding(
          672, 672, kernel_size=(5, 5), stride=[2, 2], groups=672, bias=False
          (static_padding): ZeroPad2d((1, 2, 1, 2))
        )
        (_bn1): BatchNorm2d(672, eps=0.001, momentum=0.010000000000000009, affine=True, track_running_stats=True)
        (_se_reduce): Conv2dStaticSamePadding(
          672, 28, kernel_size=(1, 1), stride=(1, 1)
          (static_padding): Identity()
        )
        (_se_expand): Conv2dStaticSamePadding(
          28, 672, kernel_size=(1, 1), stride=(1, 1)
          (static_padding): Identity()
        )
        (_project_conv): Conv2dStaticSamePadding(
          672, 192, kernel_size=(1, 1), stride=(1, 1), bias=False
          (static_padding): Identity()
        )
        (_bn2): BatchNorm2d(192, eps=0.001, momentum=0.010000000000000009, affine=True, track_running_stats=True)
        (_swish): MemoryEfficientSwish()
      )
      (12-14): 3 x MBConvBlock(
        (_expand_conv): Conv2dStaticSamePadding(
          192, 1152, kernel_size=(1, 1), stride=(1, 1), bias=False
          (static_padding): Identity()
        )
        (_bn0): BatchNorm2d(1152, eps=0.001, momentum=0.010000000000000009, affine=True, track_running_stats=True)
        (_depthwise_conv): Conv2dStaticSamePadding(
          1152, 1152, kernel_size=(5, 5), stride=(1, 1), groups=1152, bias=False
          (static_padding): ZeroPad2d((2, 2, 2, 2))
        )
        (_bn1): BatchNorm2d(1152, eps=0.001, momentum=0.010000000000000009, affine=True, track_running_stats=True)
        (_se_reduce): Conv2dStaticSamePadding(
          1152, 48, kernel_size=(1, 1), stride=(1, 1)
          (static_padding): Identity()
        )
        (_se_expand): Conv2dStaticSamePadding(
          48, 1152, kernel_size=(1, 1), stride=(1, 1)
          (static_padding): Identity()
        )
        (_project_conv): Conv2dStaticSamePadding(
          1152, 192, kernel_size=(1, 1), stride=(1, 1), bias=False
          (static_padding): Identity()
        )
        (_bn2): BatchNorm2d(192, eps=0.001, momentum=0.010000000000000009, affine=True, track_running_stats=True)
        (_swish): MemoryEfficientSwish()
      )
      (15): MBConvBlock(
        (_expand_conv): Conv2dStaticSamePadding(
          192, 1152, kernel_size=(1, 1), stride=(1, 1), bias=False
          (static_padding): Identity()
        )
        (_bn0): BatchNorm2d(1152, eps=0.001, momentum=0.010000000000000009, affine=True, track_running_stats=True)
        (_depthwise_conv): Conv2dStaticSamePadding(
          1152, 1152, kernel_size=(3, 3), stride=[1, 1], groups=1152, bias=False
          (static_padding): ZeroPad2d((1, 1, 1, 1))
        )
        (_bn1): BatchNorm2d(1152, eps=0.001, momentum=0.010000000000000009, affine=True, track_running_stats=True)
        (_se_reduce): Conv2dStaticSamePadding(
          1152, 48, kernel_size=(1, 1), stride=(1, 1)
          (static_padding): Identity()
        )
        (_se_expand): Conv2dStaticSamePadding(
          48, 1152, kernel_size=(1, 1), stride=(1, 1)
          (static_padding): Identity()
        )
        (_project_conv): Conv2dStaticSamePadding(
          1152, 320, kernel_size=(1, 1), stride=(1, 1), bias=False
          (static_padding): Identity()
        )
        (_bn2): BatchNorm2d(320, eps=0.001, momentum=0.010000000000000009, affine=True, track_running_stats=True)
        (_swish): MemoryEfficientSwish()
      )
    )
    (_conv_head): Conv2dStaticSamePadding(
      320, 1280, kernel_size=(1, 1), stride=(1, 1), bias=False
      (static_padding): Identity()
    )
    (_bn1): BatchNorm2d(1280, eps=0.001, momentum=0.010000000000000009, affine=True, track_running_stats=True)
    (_avg_pooling): AdaptiveAvgPool2d(output_size=1)
    (_dropout): Dropout(p=0.2, inplace=False)
    (_fc): Linear(in_features=1280, out_features=1000, bias=True)
    (_swish): MemoryEfficientSwish()
  )
  (next_vit): NextViT(
    (stem): Sequential(
      (0): Conv2d(1280, 640, kernel_size=(3, 3), stride=(2, 2), padding=(1, 1), bias=False)
      (1): BatchNorm2d(640, eps=1e-05, momentum=0.1, affine=True, track_running_stats=True)
      (2): ReLU(inplace=True)
    )
    (features): ModuleList(
      (0-1): 2 x Sequential(
        (0): NCB(
          (patch_embed): PatchEmbed(
            (avgpool): Identity()
            (conv): Conv2d(640, 640, kernel_size=(1, 1), stride=(1, 1), bias=False)
            (norm): BatchNorm2d(640, eps=1e-05, momentum=0.1, affine=True, track_running_stats=True)
          )
          (mhca): MHCA(
            (group_conv3x3): Conv2d(640, 640, kernel_size=(3, 3), stride=(1, 1), padding=(1, 1), groups=20, bias=False)
            (norm): BatchNorm2d(640, eps=1e-05, momentum=0.1, affine=True, track_running_stats=True)
            (act): ReLU(inplace=True)
            (projection): Conv2d(640, 640, kernel_size=(1, 1), stride=(1, 1), bias=False)
          )
          (drop_path1): Identity()
          (norm): BatchNorm2d(640, eps=1e-05, momentum=0.1, affine=True, track_running_stats=True)
          (mlp): Mlp(
            (fc1): Conv2d(640, 2560, kernel_size=(1, 1), stride=(1, 1))
            (act): ReLU(inplace=True)
            (fc2): Conv2d(2560, 640, kernel_size=(1, 1), stride=(1, 1))
            (drop): Dropout(p=0.0, inplace=False)
          )
          (drop_path2): Identity()
        )
        (1): NCB(
          (patch_embed): PatchEmbed(
            (avgpool): Identity()
            (conv): Conv2d(640, 640, kernel_size=(1, 1), stride=(1, 1), bias=False)
            (norm): BatchNorm2d(640, eps=1e-05, momentum=0.1, affine=True, track_running_stats=True)
          )
          (mhca): MHCA(
            (group_conv3x3): Conv2d(640, 640, kernel_size=(3, 3), stride=(1, 1), padding=(1, 1), groups=20, bias=False)
            (norm): BatchNorm2d(640, eps=1e-05, momentum=0.1, affine=True, track_running_stats=True)
            (act): ReLU(inplace=True)
            (projection): Conv2d(640, 640, kernel_size=(1, 1), stride=(1, 1), bias=False)
          )
          (drop_path1): Identity()
          (norm): BatchNorm2d(640, eps=1e-05, momentum=0.1, affine=True, track_running_stats=True)
          (mlp): Mlp(
            (fc1): Conv2d(640, 2560, kernel_size=(1, 1), stride=(1, 1))
            (act): ReLU(inplace=True)
            (fc2): Conv2d(2560, 640, kernel_size=(1, 1), stride=(1, 1))
            (drop): Dropout(p=0.0, inplace=False)
          )
          (drop_path2): Identity()
        )
      )
      (2): Sequential(
        (0): NCB(
          (patch_embed): PatchEmbed(
            (avgpool): Identity()
            (conv): Conv2d(640, 640, kernel_size=(1, 1), stride=(1, 1), bias=False)
            (norm): BatchNorm2d(640, eps=1e-05, momentum=0.1, affine=True, track_running_stats=True)
          )
          (mhca): MHCA(
            (group_conv3x3): Conv2d(640, 640, kernel_size=(3, 3), stride=(1, 1), padding=(1, 1), groups=20, bias=False)
            (norm): BatchNorm2d(640, eps=1e-05, momentum=0.1, affine=True, track_running_stats=True)
            (act): ReLU(inplace=True)
            (projection): Conv2d(640, 640, kernel_size=(1, 1), stride=(1, 1), bias=False)
          )
          (drop_path1): Identity()
          (norm): BatchNorm2d(640, eps=1e-05, momentum=0.1, affine=True, track_running_stats=True)
          (mlp): Mlp(
            (fc1): Conv2d(640, 2560, kernel_size=(1, 1), stride=(1, 1))
            (act): ReLU(inplace=True)
            (fc2): Conv2d(2560, 640, kernel_size=(1, 1), stride=(1, 1))
            (drop): Dropout(p=0.0, inplace=False)
          )
          (drop_path2): Identity()
        )
        (1): NCB(
          (patch_embed): PatchEmbed(
            (avgpool): Identity()
            (conv): Conv2d(640, 640, kernel_size=(1, 1), stride=(1, 1), bias=False)
            (norm): BatchNorm2d(640, eps=1e-05, momentum=0.1, affine=True, track_running_stats=True)
          )
          (mhca): MHCA(
            (group_conv3x3): Conv2d(640, 640, kernel_size=(3, 3), stride=(1, 1), padding=(1, 1), groups=20, bias=False)
            (norm): BatchNorm2d(640, eps=1e-05, momentum=0.1, affine=True, track_running_stats=True)
            (act): ReLU(inplace=True)
            (projection): Conv2d(640, 640, kernel_size=(1, 1), stride=(1, 1), bias=False)
          )
          (drop_path1): Identity()
          (norm): BatchNorm2d(640, eps=1e-05, momentum=0.1, affine=True, track_running_stats=True)
          (mlp): Mlp(
            (fc1): Conv2d(640, 2560, kernel_size=(1, 1), stride=(1, 1))
            (act): ReLU(inplace=True)
            (fc2): Conv2d(2560, 640, kernel_size=(1, 1), stride=(1, 1))
            (drop): Dropout(p=0.0, inplace=False)
          )
          (drop_path2): Identity()
        )
        (2): NCB(
          (patch_embed): PatchEmbed(
            (avgpool): Identity()
            (conv): Conv2d(640, 640, kernel_size=(1, 1), stride=(1, 1), bias=False)
            (norm): BatchNorm2d(640, eps=1e-05, momentum=0.1, affine=True, track_running_stats=True)
          )
          (mhca): MHCA(
            (group_conv3x3): Conv2d(640, 640, kernel_size=(3, 3), stride=(1, 1), padding=(1, 1), groups=20, bias=False)
            (norm): BatchNorm2d(640, eps=1e-05, momentum=0.1, affine=True, track_running_stats=True)
            (act): ReLU(inplace=True)
            (projection): Conv2d(640, 640, kernel_size=(1, 1), stride=(1, 1), bias=False)
          )
          (drop_path1): Identity()
          (norm): BatchNorm2d(640, eps=1e-05, momentum=0.1, affine=True, track_running_stats=True)
          (mlp): Mlp(
            (fc1): Conv2d(640, 2560, kernel_size=(1, 1), stride=(1, 1))
            (act): ReLU(inplace=True)
            (fc2): Conv2d(2560, 640, kernel_size=(1, 1), stride=(1, 1))
            (drop): Dropout(p=0.0, inplace=False)
          )
          (drop_path2): Identity()
        )
        (3): NCB(
          (patch_embed): PatchEmbed(
            (avgpool): Identity()
            (conv): Conv2d(640, 640, kernel_size=(1, 1), stride=(1, 1), bias=False)
            (norm): BatchNorm2d(640, eps=1e-05, momentum=0.1, affine=True, track_running_stats=True)
          )
          (mhca): MHCA(
            (group_conv3x3): Conv2d(640, 640, kernel_size=(3, 3), stride=(1, 1), padding=(1, 1), groups=20, bias=False)
            (norm): BatchNorm2d(640, eps=1e-05, momentum=0.1, affine=True, track_running_stats=True)
            (act): ReLU(inplace=True)
            (projection): Conv2d(640, 640, kernel_size=(1, 1), stride=(1, 1), bias=False)
          )
          (drop_path1): Identity()
          (norm): BatchNorm2d(640, eps=1e-05, momentum=0.1, affine=True, track_running_stats=True)
          (mlp): Mlp(
            (fc1): Conv2d(640, 2560, kernel_size=(1, 1), stride=(1, 1))
            (act): ReLU(inplace=True)
            (fc2): Conv2d(2560, 640, kernel_size=(1, 1), stride=(1, 1))
            (drop): Dropout(p=0.0, inplace=False)
          )
          (drop_path2): Identity()
        )
        (4): NCB(
          (patch_embed): PatchEmbed(
            (avgpool): Identity()
            (conv): Conv2d(640, 640, kernel_size=(1, 1), stride=(1, 1), bias=False)
            (norm): BatchNorm2d(640, eps=1e-05, momentum=0.1, affine=True, track_running_stats=True)
          )
          (mhca): MHCA(
            (group_conv3x3): Conv2d(640, 640, kernel_size=(3, 3), stride=(1, 1), padding=(1, 1), groups=20, bias=False)
            (norm): BatchNorm2d(640, eps=1e-05, momentum=0.1, affine=True, track_running_stats=True)
            (act): ReLU(inplace=True)
            (projection): Conv2d(640, 640, kernel_size=(1, 1), stride=(1, 1), bias=False)
          )
          (drop_path1): Identity()
          (norm): BatchNorm2d(640, eps=1e-05, momentum=0.1, affine=True, track_running_stats=True)
          (mlp): Mlp(
            (fc1): Conv2d(640, 2560, kernel_size=(1, 1), stride=(1, 1))
            (act): ReLU(inplace=True)
            (fc2): Conv2d(2560, 640, kernel_size=(1, 1), stride=(1, 1))
            (drop): Dropout(p=0.0, inplace=False)
          )
          (drop_path2): Identity()
        )
        (5): NCB(
          (patch_embed): PatchEmbed(
            (avgpool): Identity()
            (conv): Conv2d(640, 640, kernel_size=(1, 1), stride=(1, 1), bias=False)
            (norm): BatchNorm2d(640, eps=1e-05, momentum=0.1, affine=True, track_running_stats=True)
          )
          (mhca): MHCA(
            (group_conv3x3): Conv2d(640, 640, kernel_size=(3, 3), stride=(1, 1), padding=(1, 1), groups=20, bias=False)
            (norm): BatchNorm2d(640, eps=1e-05, momentum=0.1, affine=True, track_running_stats=True)
            (act): ReLU(inplace=True)
            (projection): Conv2d(640, 640, kernel_size=(1, 1), stride=(1, 1), bias=False)
          )
          (drop_path1): Identity()
          (norm): BatchNorm2d(640, eps=1e-05, momentum=0.1, affine=True, track_running_stats=True)
          (mlp): Mlp(
            (fc1): Conv2d(640, 2560, kernel_size=(1, 1), stride=(1, 1))
            (act): ReLU(inplace=True)
            (fc2): Conv2d(2560, 640, kernel_size=(1, 1), stride=(1, 1))
            (drop): Dropout(p=0.0, inplace=False)
          )
          (drop_path2): Identity()
        )
      )
      (3): Sequential(
        (0): NCB(
          (patch_embed): PatchEmbed(
            (avgpool): Identity()
            (conv): Conv2d(640, 640, kernel_size=(1, 1), stride=(1, 1), bias=False)
            (norm): BatchNorm2d(640, eps=1e-05, momentum=0.1, affine=True, track_running_stats=True)
          )
          (mhca): MHCA(
            (group_conv3x3): Conv2d(640, 640, kernel_size=(3, 3), stride=(1, 1), padding=(1, 1), groups=20, bias=False)
            (norm): BatchNorm2d(640, eps=1e-05, momentum=0.1, affine=True, track_running_stats=True)
            (act): ReLU(inplace=True)
            (projection): Conv2d(640, 640, kernel_size=(1, 1), stride=(1, 1), bias=False)
          )
          (drop_path1): Identity()
          (norm): BatchNorm2d(640, eps=1e-05, momentum=0.1, affine=True, track_running_stats=True)
          (mlp): Mlp(
            (fc1): Conv2d(640, 2560, kernel_size=(1, 1), stride=(1, 1))
            (act): ReLU(inplace=True)
            (fc2): Conv2d(2560, 640, kernel_size=(1, 1), stride=(1, 1))
            (drop): Dropout(p=0.0, inplace=False)
          )
          (drop_path2): Identity()
        )
        (1): NTB(
          (conv1): Conv2d(640, 640, kernel_size=(1, 1), stride=(1, 1), bias=False)
          (norm1): BatchNorm2d(640, eps=1e-05, momentum=0.1, affine=True, track_running_stats=True)
          (e_mhsa): MultiheadAttention(
            (out_proj): NonDynamicallyQuantizableLinear(in_features=640, out_features=640, bias=True)
          )
          (avgpool): AvgPool2d(kernel_size=2, stride=2, padding=0)
          (conv2): Conv2d(640, 640, kernel_size=(1, 1), stride=(1, 1), bias=False)
          (mhca): MHCA(
            (group_conv3x3): Conv2d(640, 640, kernel_size=(3, 3), stride=(1, 1), padding=(1, 1), groups=20, bias=False)
            (norm): BatchNorm2d(640, eps=1e-05, momentum=0.1, affine=True, track_running_stats=True)
            (act): ReLU(inplace=True)
            (projection): Conv2d(640, 640, kernel_size=(1, 1), stride=(1, 1), bias=False)
          )
          (norm3): BatchNorm2d(1280, eps=1e-05, momentum=0.1, affine=True, track_running_stats=True)
          (mlp): Mlp(
            (fc1): Conv2d(1280, 5120, kernel_size=(1, 1), stride=(1, 1))
            (act): ReLU(inplace=True)
            (fc2): Conv2d(5120, 640, kernel_size=(1, 1), stride=(1, 1))
            (drop): Dropout(p=0.0, inplace=False)
          )
          (drop_path): Identity()
        )
      )
    )
    (head): Sequential(
      (0): AdaptiveAvgPool2d(output_size=1)
      (1): Flatten(start_dim=1, end_dim=-1)
      (2): Linear(in_features=640, out_features=1, bias=True)
    )
  )
)
=-=-=-=-=-=
  0%|          | 0/50 [00:00<?, ?it/s]/home/work/miniconda3/lib/python3.12/site-packages/torch/optim/lr_scheduler.py:156: UserWarning: The epoch parameter in `scheduler.step()` was not necessary and is being deprecated where possible. Please use `scheduler.step()` to step the scheduler. During the deprecation, if epoch is different from None, the closed form is used instead of the new chainable form, where available. Please open an issue if you are unable to replicate your use case: https://github.com/pytorch/pytorch/issues/new/choose.
…
